data.pth (torch, 5015 bytes, 6 tensors)

l1.weight f4 [8, 54]
-0.11451108 0.21497113 0.6277259 0.2334051 -0.26167807 -0.3354528 0.38098624 0.458279
-0.08616671 0.5485109 0.18472461 0.25667813 0.41272324 0.44841453 0.10035601 0.3025506
0.27556774 -0.35954666 -0.2745163 0.3203167 -0.089354716 0.36505225 0.41176748 0.25044516
0.31204727 0.3734301 -0.31888318 0.2513867 0.08743 0.16571145 -0.25596657 0.25210285
0.058777012 0.5845029 0.3089324 0.3703265 -0.05782205 -0.1120141 0.35637626 0.32008561
-0.07460857 -0.28369218 0.21972293 0.104802996 0.55661136 0.46000507 -0.31835246 -0.12841247
0.21575387 -0.45982617 0.3113229 -0.1505884 0.3124731 -0.08879488 0.532391 0.32876858
-0.22111246 -0.094394594 -0.34182224 -0.40017733 0.062265765 -0.29048127 0.26247975 -0.36056483
-0.1984381 0.5476681 0.43009162 0.4490727 0.037261344 0.3893944 -0.24885161 -0.47870997
0.49723807 -0.47236982 0.33816046 -0.42689094 -0.59514934 0.25320378 0.17368373 -0.24583931
0.42088297 -0.052509572 0.32635692 -0.10329058 -0.32985494 0.5696123 0.27218783 -0.28038508
0.24929444 0.4405204 0.4164016 0.15429467 -0.15714595 0.060634386 -0.23930182 0.5668174
0.25827706 -0.08542718 0.29218572 0.06854603 1.0019449 0.43049243 -0.03343644 0.73674417
0.23299278 0.3229714 0.046534915 0.22005484 -0.13077433 -0.34368718 -0.3048263 0.34536344
0.15703888 -0.005937264 0.0186925 -0.11613396 -0.34633976 -0.091986194 0.45893607 -0.20526044
0.3411656 -0.23301834 -0.155608 -0.26207122 0.49336922 -0.2449734 0.40622413 0.6449013
-0.19379798 0.6940021 0.50090647 0.38618213 -0.1739375 0.50766534 0.5240764 -0.29952845
0.16509287 -0.46939 -0.09058995 -0.19252993 0.021185068 -0.31845638 -0.20306435 -0.13015828
0.2993298 -0.36705136 0.018215332 -0.09823275 -0.26010746 0.43192467 -0.20020774 -0.14303777
-0.3459462 -0.08332325 -0.58496505 -0.23163337 0.35324267 0.655755 -0.08840938 0.33820125
0.036732335 0.18664193 0.35376686 0.50060874 -0.30693856 -0.1674621 -0.60708064 0.70426166
-0.065654926 -0.4111789 -0.039825868 -0.30191 -0.16142534 0.6744381 0.12554471 0.825795
0.5494223 0.41921365 -0.34227034 0.54886097 -0.035593517 -0.42641693 0.29332843 -0.50346863
-0.44175285 -0.035160497 0.016928427 -0.08438271 -0.10786021 0.64846534 -0.0076766633 0.3120333
0.30735627 0.7963578 0.0054453984 -0.46072197 0.70113885 0.47357023 0.0122869285 0.0034814272
-0.09667826 -0.08032009 0.3712537 -0.29533282 0.751459 0.59948206 -0.023179658 0.6483997
0.59790015 0.31330737 -0.17918585 -0.18771668 0.36567956 -0.2359121 -0.2971268 0.11920844
-0.25004077 -0.3052595 0.07492911 0.36639094 0.4410981 -0.39475325 -0.13430062 -0.31776947
-0.35353607 -0.3327036 0.31403592 0.62103903 0.1181904 0.5967383 -0.13094814 0.4348797
0.57386607 -0.26411194 0.33599162 0.54673123 -0.20773809 0.43948266 0.6719324 0.7950103
0.44152212 0.4581238 0.20280534 -0.27579376 0.20495471 -0.41087952 -0.31712565 0.5571219
0.09737989 -0.16879797 -0.2830915 0.36385432 0.18556151 -0.22116788 -0.018687418 -0.03358078
00000000: c984 eabd 6421 5c3e a5b2 203f bf01 6f3e
00000010: abfa 85be 78c0 abbe a110 c33e 8ca3 ea3e
00000020: 2c78 b0bd 366b 0c3f 7328 3d3e 516b 833e
00000030: 7650 d33e 9796 e53e 7487 cd3d eae7 9a3e
00000040: 3717 8d3e 8016 b8be 678d 8cbe 8d00 a43e
00000050: 9bff b6bd 21e8 ba3e 30d3 d23e 593a 803e
00000060: a9c4 9f3e 3b32 bf3e a844 a3be c2b5 803e
00000070: 800e b33d 43b0 293e 0d0e 83be a013 813e
00000080: 2ac0 703d fba1 153f 632c 9e3e 6f9b bd3e
00000090: d0d6 6cbd a667 e5bd f376 b63e 43e2 a33e
000000a0: 61cc 98bd 1a40 91be 0cff 603e f4a2 d63d
000000b0: 157e 0e3f c985 eb3e 18ff a2be 8f7e 03be
000000c0: 95ee 5c3e 566e ebbe b765 9f3e d833 1abe
000000d0: 79fc 9f3e 17da b5bd c74a 083f 5b54 a83e
000000e0: 4e6b 62be f451 c1bd 5303 afbe 0be4 ccbe
000000f0: 630a 7f3d f6b9 94be bf63 863e f49b b8be
00000100: 5b33 4bbe fa33 0c3f f834 dc3e dbec e53e
00000110: 5a9f 183d b45e c73e f5d2 7ebe 7919 f5be
00000120: fd95 fe3e 75da f1be 5e23 ad3e 7391 dabe
00000130: b55b 18bf eda3 813e 26da 313e 4dbd 7bbe
00000140: f97d d73e 4714 57bd 4118 a73e 038a d3bd
00000150: bfe2 a8be 1dd2 113f 345c 8b3e a28e 8fbe
00000160: 0b47 7f3e e48b e13e 9732 d53e 6cff 1d3e
00000170: deea 20be c35b 783d 890b 75be f21a 113f
00000180: e43c 843e 72f4 aebd 5e99 953e dc61 8c3d
00000190: bb3f 803f 8169 dc3e a6f4 08bd 449b 3c3f
000001a0: a995 6e3e 825c a53e 659b 3e3d 0e56 613e
000001b0: b5e9 05be c4f7 afbe 3112 9cbe 7ad3 b03e
000001c0: cdce 203e 618d c2bb 0421 993c a4d7 edbd
000001d0: 7253 b1be 4263 bcbd abf9 ea3e cb2f 52be
000001e0: 42ad ae3e 5c9c 6ebe b457 1fbe 332e 86be
000001f0: e49a fc3e 4fda 7abe 9cfc cf3e 4018 253f
00000200: fa72 46be 1faa 313f 683b 003f aab9 c53e
00000210: ac1c 32be 5bf6 013f df29 063f cb5b 99be
00000220: 1b0e 293e e353 f0be 3987 b9bd 9126 45be
00000230: 4f8c ad3c b70c a3be 1af0 4fbe 3648 05be
00000240: c141 993e 28ee bbbe 5238 953c 412e c9bd
00000250: ce2c 85be 3b25 dd3e 4203 4dbe 7e78 12be
00000260: dc1f b1be 61a5 aabd 45c0 15bf 4c31 6dbe
00000270: 39dc b43e 8fdf 273f fa0f b5bd b728 ad3e
00000280: a574 163d 101f 3f3e ee20 b53e e527 003f
00000290: 0d27 9dbe 2f7b 2bbe a369 1bbf 7e4a 343f
000002a0: 1776 86bd 0a86 d2be 7320 23bd f393 9abe
000002b0: af4c 25be faa7 2c3f cb8e 003e 4d67 533f
000002c0: f1a6 0c3f 2ca3 d63e 0f3e afbe 2782 0c3f
000002d0: 82ca 11bd 5253 dabe 252f 963e 52e3 00bf
000002e0: 6e2d e2be 7404 10bd 7cad 8a3c d8d0 acbd
000002f0: d0e5 dcbd d301 263f 858c fbbb d4c2 9f3e
00000300: cd5d 9d3e 1bde 4b3f 506f b23b c0e3 ebbe
00000310: d67d 333f cc77 f23e 1d4f 493c a828 643b
00000320: 40ff c5bd dc7e a4bd f714 be3e dd35 97be
00000330: 9e5f 403f a877 193f 44e3 bdbc 86fd 253f
00000340: fc0f 193f d369 a03e 7f7c 37be cd38 40be
00000350: 5a3a bb3e f192 71be 0121 98be 8e23 f43d
00000360: 5805 80be f94a 9cbe 6f74 993d 9897 bb3e
00000370: 9cd7 e13e 191d cabe 1a86 09be aeb2 a2be
00000380: ae02 b5be 2058 aabe 51c9 a03e 6afc 1e3f
00000390: cf0d f23d d7c3 183f 4517 06be 8da8 de3e
000003a0: e3e8 123f ae39 87be 1807 ac3e 94f6 0b3f
000003b0: 4bb9 54be df03 e13e c303 2c3f cc85 4b3f
000003c0: 300f e23e 348f ea3e 34ac 4f3e d734 8dbe
000003d0: a6df 513e cd5e d2be 4b5e a2be 8a9f 0e3f
000003e0: 1c6f c73d 60d9 2cbe 5ef1 90be 1d4b ba3e
000003f0: d603 3e3e d579 62be 5b16 99bc 008c 09bd

l1.bias f4 [8]
0.41908914 0.5951641 0.5849981 0.52278024 0.75487715 0.83235115 0.5244198 0.717611
00000000: da92 d63e ad5c 183f 6fc2 153f edd4 053f
00000010: a13f 413f f714 553f 6040 063f 5bb5 373f

l2.weight f4 [8, 8]
0.9782327 0.6283237 -0.69417995 0.15098225 -0.24084629 -1.2474952 1.2234478 0.6048828
0.19300142 0.09956751 1.1095393 -0.036490366 1.2048188 -0.3695214 -0.9808445 -0.048083667
1.0591593 0.0013942025 -0.18525499 -0.5052915 0.9022316 -0.5913598 0.06792369 0.8550923
0.34470502 -0.34333885 0.8309676 -0.53372777 1.2693477 0.58359134 0.11057977 0.38726908
-0.39005268 1.2833477 0.22391705 1.1625679 0.16896316 1.3550155 -0.016955864 -0.6447585
0.31029725 1.0968354 0.57087916 -0.7240598 0.6959459 0.33219284 -0.6438094 1.2865145
0.46102712 -0.20777152 -0.4906635 1.0727215 -0.3802567 0.68729866 1.0323 1.3477144
0.43911377 1.0565172 -1.1059357 1.0651623 0.26314262 0.03542392 -0.7460593 0.6608438
00000000: 756d 7a3f d2d9 203f c7b5 31bf 179b 1a3e
00000010: 69a0 76be ecad 9fbf f099 9c3f 99d9 1a3f
00000020: 2aa2 453e 0dea cb3d 6205 8e3f ec76 15bd
00000030: 8137 9a3f e931 bdbe a018 7bbf 61f3 44bd
00000040: 8892 873f acbd b63a 7cb3 3dbe c95a 01bf
00000050: a6f8 663f 5b63 17bf 931b 8b3d 54e7 5a3f
00000060: 2d7d b03e 1cca afbe 4bba 543f 62a2 08bf
00000070: fc79 a23f 3e66 153f a577 e23d 2248 c63e
00000080: fcb4 c7be bd44 a43f 834a 653e 06cf 943f
00000090: ae04 2d3e 2671 ad3f 06e7 8abc e50e 25bf
000000a0: 48df 9e3e 1a65 8c3f 2325 123f fc5b 39bf
000000b0: 8329 323f 2e15 aa3e b1d0 24bf 82ac a43f
000000c0: bf0b ec3e 0fc2 54be 3f38 fbbe f04e 893f
000000d0: 02b1 c2be cef2 2f3f 6822 843f e881 ac3f
000000e0: 85d3 e03e f53b 873f 4d8f 8dbf 3d57 883f
000000f0: a1ba 863e ac18 113d befd 3ebf 0f2d 293f

l2.bias f4 [8]
0.13967855 0.5100501 -0.023780022 0.58532244 0.5331297 0.045089543 0.72409886 -0.36216727
00000000: e507 0f3e a592 023f 52ce c2bc b1d7 153f
00000010: 307b 083f d0af 383d 8b5e 393f fd6d b9be

l3.weight f4 [7, 8]
0.15339848 0.11214628 0.42331737 -0.35616934 -0.2652808 -0.086244866 -0.49490896 0.5836947
0.6954119 -0.6143146 0.056340817 -1.1610765 -0.44946238 -1.4787135 0.59008145 0.29666534
-0.83584964 -0.217105 -0.655392 0.33176866 0.80093414 -1.3982054 0.8250912 -1.3808664
-1.2726479 0.62776583 0.34858933 0.5046451 -0.6878877 0.3404414 0.11991205 -1.0806785
-0.6933676 0.49858806 -1.5152752 0.46343887 0.6030776 0.2271575 -1.3306147 -0.92088217
0.530296 -0.817586 0.46241373 0.02609781 -1.2384777 0.07007758 0.28762773 -0.39296842
-0.8714774 -0.59391165 -1.2473233 -0.7119884 0.3038683 0.6187342 0.18676706 0.43884495
00000000: 7e14 1d3e f3ac e53d 0ebd d83e d45b b6be
00000010: e3d2 87be 26a1 b0bd b564 fdbe 046d 153f
00000020: 8406 323f b943 1dbf a1c5 663d 289e 94bf
00000030: ef1f e6be 7c46 bdbf 940f 173f 85e4 973e
00000040: 3efa 55bf c650 5ebe c5c7 27bf 95dd a93e
00000050: 050a 4d3f 65f8 b2bf 2d39 533f 3bc0 b0bf
00000060: 20e6 a2bf 43b5 203f 4d7a b23e 6c30 013f
00000070: 6919 30bf 564e ae3e 7394 f53d ac53 8abf
00000080: 8a80 31bf ef46 ff3e 8af4 c1bf dc47 ed3e
00000090: 4b63 1a3f fa9b 683e 9551 aabf efbe 6bbf
000000a0: 7bc1 073f 514d 51bf 7ec1 ec3e 13cb d53c
000000b0: 7086 9ebf d684 8f3d f143 933e 2833 c9be
000000c0: 2519 5fbf 980a 18bf 4aa8 9fbf df44 36bf
000000d0: a094 9b3e 5d65 1e3f dd3f 3f3e 49b0 e03e

l3.bias f4 [7]
-0.35412136 0.20745051 -0.012288616 0.3295465 0.16635472 0.25972888 0.06455455
00000000: 654f b5be e86d 543e 3156 49bc 52ba a83e
00000010: e458 2a3e 2ffb 843e 2d35 843d
